problem2/results/best_model.pth (torch, 365474 bytes, 32 tensors)

encoder_low.0.weight f4 [32, 9, 3]
0.15476578 0.21035211 0.04293767 0.1255118 0.11927697 0.010101483 0.20806625 -0.03739694
0.18110226 0.13664243 -0.07186143 0.035452433 0.17476459 -0.03283373 0.23357144 0.13320822
-0.025658295 -0.14533554 0.06171935 0.11714843 0.07620712 -0.10047498 -0.017987452 -0.042701684
-0.001909704 0.0887404 -0.048068356 0.111910544 0.21454513 0.022225052 0.08637282 0.05066921
-0.045527354 -0.122310415 0.25144547 -0.024709586 0.20984861 0.117968984 0.10762841 0.21533611
0.16912344 0.059807923 0.015579251 0.18774587 -0.067120664 -0.07578502 -0.02163877 -0.010752045
0.16887924 0.018584704 0.05864844 -0.050979815 0.07320606 0.1104192 -0.05599314 -0.12906334
-0.048320528 -0.18622462 -0.09185792 0.18546048 0.17649263 -0.041604843 -0.006940958 -0.014374051
-0.15474556 -0.019889215 0.006392476 -0.17899421 -0.07219343 -0.11243154 -0.16043858 -0.041667163
-0.18347684 -0.06214947 -0.06171386 -0.037410326 -0.08737179 -0.26874718 0.1656913 -0.18115476
-0.06567549 0.08429694 0.15474166 -0.047793124 0.09203478 -0.028901331 -0.030108513 0.1110408
0.12636852 -0.11013348 0.15756752 0.31931844 0.098136835 0.012672816 0.15166377 0.20983249
0.29788163 -0.037181526 0.25590348 0.18873483 0.19328684 0.023034107 0.28052282 0.083197884
0.11229238 0.1157153 0.11158719 0.19304131 0.12390664 -0.1418058 -0.16805147 0.109484665
0.022840142 0.062298406 -0.1079985 0.031804148 -0.0800648 -0.13707657 0.0758137 0.10919825
0.026124299 0.010094585 0.09634735 0.15406251 0.12958075 -0.118114375 -0.14127742 -0.16518721
-0.105599165 0.057262164 0.1298747 -0.0053829034 0.15304057 -0.12964387 0.044457585 -0.08764812
0.05270102 0.25899807 0.09125158 -0.08255619 -0.14074278 0.1848523 0.13672817 0.11924344
0.11328367 -0.123350136 -0.023667889 0.027615063 0.04445371 -0.12472721 0.10090458 -0.025372941
-0.033830635 0.07870755 0.057298955 0.12186176 0.0116913 0.17173387 0.15091962 0.046072815
-0.111966245 0.051434107 -0.12857051 0.07607314 -0.24139836 -0.042247143 -0.09303528 -0.16009986
0.0839525 -0.16986585 0.16387625 0.17010652 0.034096476 0.08596107 0.120641336 0.08485644
-0.16365814 -0.027220143 -0.10713757 -0.012582097 0.14566866 -0.10234995 -0.17251809 0.15156198
0.052028973 0.20540842 -0.025874592 0.051781192 0.1655171 -0.0010446643 0.2223374 0.036239974
0.20860133 -0.024149543 0.058419246 -0.117996916 -0.16122414 -0.14790043 -0.097251385 -0.027709
0.030314995 0.08300804 -0.11025836 0.12212172 -0.09703181 0.2268897 -0.16927528 0.15090054
-0.017212903 -0.11187008 -0.093187794 0.07358945 0.10847983 0.17299792 0.088806674 -0.10675997
-0.22353855 0.21207596 -0.023130707 0.040754188 -0.17241137 0.059633452 -0.01883058 -0.09703125
0.10864334 -0.063123345 0.018124264 0.053816494 0.31857288 0.05895707 0.049874302 0.14654171
0.033673644 -0.08961707 0.002018366 0.07764486 0.04346378 -0.1489626 0.12311575 -0.15778515
0.0011500204 0.15660225 -0.06853309 0.10893085 -0.124871425 0.16199294 0.089190364 0.020847501
0.078428134 -0.06615388 0.028238943 -0.27811384 0.06461979 0.009798769 0.012411197 0.09306321
00000000: ec7a 1e3e 8b66 573e 69df 2f3d 2a86 003e
00000010: 7c47 f43d b180 253c 520f 553e 892d 19bd
00000020: df72 393e feeb 0b3e 162c 93bd 9236 113d
00000030: 7df5 323e a97c 06bd 5a2d 6f3e bc67 083e
00000040: 5831 d2bc d7d2 14be 6ecd 7c3d 84eb ef3d
00000050: 7b12 9c3d d4c5 cdbd 6c5a 93bc f6e7 2ebd
00000060: 084f faba 87bd b53d 53e3 44bd 5b31 e53d
00000070: b8b1 5b3e 5011 b63c 3ce4 b03d 848a 4f3d
00000080: e47a 3abd e27d fabd 76bd 803e c26b cabc
00000090: 8ee2 563e b999 f13d 496c dc3d 1281 5c3e
000000a0: b22e 2d3e 27f9 743d 1d40 7f3c 7440 403e
000000b0: 8f76 89bd 2d35 9bbd ca43 b1bc 5829 30bc
000000c0: aeee 2c3e f33e 983c 5939 703d 36d0 50bd
000000d0: 0fed 953d 7623 e23d 1059 65bd 2e29 04be
000000e0: bfeb 45bd abb1 3ebe 0120 bcbd 5ae9 3d3e
000000f0: 7cba 343e d769 2abd fa70 e3bb 2481 6bbc
00000100: 9f75 1ebe b5ee a2bc fa77 d13b 424a 37be
00000110: 26da 93bd 8242 e6bd 034a 24be 30ab 2abd
00000120: 5ae1 3bbe 7190 7ebd acc7 7cbd 923b 19bd
00000130: fbef b2bd 3b99 89be fbaa 293e a280 39be
00000140: df80 86bd e0a3 ac3d 9974 1e3e b9c2 43bd
00000150: bb7c bc3d 7cc2 ecbc 21a6 f6bc 5c69 e33d
00000160: c066 013e a98d e1bd 6159 213e b57d a33e
00000170: f7fb c83d a5a1 4f3c bf4d 1b3e 54de 563e
00000180: f183 983e a84b 18bd c805 833e b443 413e
00000190: fcec 453e 06b2 bc3c b0a0 8f3e a763 aa3d
000001a0: 8cf9 e53d 25fc ec3d d387 e43d 9fac 453e
000001b0: c4c2 fd3d 8a35 11be af15 2cbe 7f39 e03d
000001c0: 401b bb3c 9d2c 7f3d 512e ddbd 1145 023d
000001d0: 04f9 a3bd cd5d 0cbe 3744 9b3d 55a3 df3d
000001e0: a002 d63c c263 253c c251 c53d 90c2 1d3e
000001f0: d1b0 043e f3e5 f1bd 07ab 10be d626 29be
00000200: 6044 d8bd bb8b 6a3d e0fd 043e 1163 b0bb
00000210: abb6 1c3e 5dc1 04be 2819 363d dc80 b3bd
00000220: 06dd 573d 659b 843e 1ce2 ba3d 3813 a9bd
00000230: e01e 10be ec49 3d3e 7802 0c3e e835 f43d
00000240: 4501 e83d ff9e fcbd 29e3 c1bc fc38 e23c
00000250: 1815 363d fb70 ffbd 0fa7 ce3d eada cfbc
00000260: fe91 0abd 6d31 a13d 4fb2 6a3d a992 f93d
00000270: de8c 3f3c 01db 2f3e ac8a 1a3e d9b6 3c3d
00000280: 8f4e e5bd 92ac 523d fda7 03be 3ccc 9b3d
00000290: 2231 77be 570b 2dbd 4889 bebd 38f1 23be
000002a0: 4aef ab3d 50f1 2dbe 2dcf 273e 6730 2e3e
000002b0: bfa8 0b3d 5c0c b03d ce12 f73d 37c9 ad3d
000002c0: 0096 27be c7fc debc f16a dbbd 2425 4ebc
000002d0: 2a2a 153e da9c d1bd 95a8 30be 1033 1b3e
000002e0: 551c 553d 9656 523e f4f6 d3bc 8418 543d
000002f0: 517d 293e 1eed 88ba 6aac 633e 5e70 143d
00000300: 969b 553e 43d5 c5bc 0549 6f3d 5ea8 f1bd
00000310: f117 25be 3673 17be bc2b c7bd fcfd e2bc
00000320: 2757 f83c 1f00 aa3d 23cf e1bd f41a fa3d
00000330: 9db8 c6bd c655 683e 8056 2dbe ac85 1a3e
00000340: 1302 8dbc 241c e5bd 3ed9 bebd 11b6 963d
00000350: ac2a de3d 5e26 313e 46e0 b53d f9a4 dabd
00000360: 4ae7 64be 712a 593e 9c7c bdbc dded 263d
00000370: 9b8c 30be 3542 743d 9742 9abc 52b8 c6bd
00000380: 6680 de3d d046 81bd 5679 943c af6e 5c3d
00000390: fc1b a33e f87c 713d ff48 4c3d 080f 163e
000003a0: 60ed 093d 2889 b7bd 9046 043b 4504 9f3d
000003b0: 1407 323d a789 18be 1c24 fc3d 6e92 21be
000003c0: 48bc 963a 575c 203e 145b 8cbd 2317 df3d
000003d0: 97bc ffbd 7ae1 253e 70a9 b63d 61c8 aa3c
000003e0: ee9e a03d af7b 87bd 5b55 e73c f064 8ebe
000003f0: 6157 843d 048b 203c 5558 4b3c ed97 be3d

encoder_low.0.bias f4 [32]
-0.07628418 -0.018999778 0.091387935 -0.076769695 0.058572467 -0.07310976 0.08840694 0.010868698
0.1008941 0.1590348 -0.013624705 0.22843768 0.18021433 0.080955364 -0.0890493 -0.0953768
0.10483113 0.073783845 0.008272034 0.037041258 -0.063504055 -0.08943277 0.036433537 0.13887425
0.24676655 0.022141704 0.12512924 0.03370221 -0.057958487 0.0904052 0.060730163 -0.10680968
00000000: e13a 9cbd 6ca5 9bbc 9929 bb3d 6e39 9dbd
00000010: afe9 6f3d 92ba 95bd b30e b53d a012 323c
00000020: 91a1 ce3d 05da 223e 283a 5fbc 91eb 693e
00000030: 1b8a 383e edcb a53d 7b5f b6bd e954 c3bd
00000040: b4b1 d63d fc1b 973d 6d87 073c 93b8 173d
00000050: 6a0e 82bd 8728 b7bd 553b 153d 0d35 0e3e
00000060: 5fb0 7c3e 8562 b53c e121 003e 540b 0a3d
00000070: e165 6dbd 5d26 b93d 31c0 783d 09bf dabd

encoder_low.2.weight f4 [64, 32, 3]
0.05740241 0.095132 0.11067683 -0.04822512 0.11147919 0.016343838 0.042480297 -0.025650414
-0.039611068 -0.11928545 -0.06265571 -0.0054315706 -0.09883515 -0.04307395 -0.047384195 0.042680394
-0.027450664 -0.05815238 -0.1440343 0.0019081695 -0.11423922 -0.030047357 0.09697778 0.051739007
0.0037622196 0.011288022 -0.022813024 0.01106485 -0.070891194 0.07056638 -0.05273405 0.02844189
0.07434995 -0.037829623 0.1039039 -0.26316813 -0.077730924 0.033584204 -0.12298327 -0.021669174
0.013231786 -0.02057274 -0.018014414 -0.10515352 -0.07287638 0.001687427 -0.08846487 0.060039975
0.0333185 -0.19942956 0.037539657 -0.02610776 -0.018112946 0.10924528 -0.1417522 0.072748475
0.010587334 0.018634427 0.0074022184 -0.117168434 -0.026120845 0.059055705 0.06648267 -0.030210169
-0.05997705 -0.060525026 0.07071754 0.09710264 0.061185926 -0.02715762 -0.10322902 -0.0894846
-0.019859148 0.07430921 0.0009512404 -0.053269982 -0.07152259 0.044100318 -0.030254843 -0.07081529
-0.11604408 0.09957108 0.072638154 -0.040836856 0.037052482 -0.07046178 -0.19329439 -0.03400503
-0.018975016 -0.1285081 -0.051639296 -0.0044634943 -0.09035056 -0.08263896 -0.0008565604 -0.04158146
-0.12550604 -0.015255791 -0.097873904 0.040941514 -0.04192269 -0.08721092 -0.025889872 0.012305405
0.041799404 0.02219829 -0.018438352 -0.060233917 -0.08574442 -0.028876744 0.04963371 -0.053027693
-0.05639092 -0.14414977 0.08976712 0.053772032 -0.112042606 -0.08914413 0.06724088 -0.012562695
-0.022302963 0.10415781 0.04152432 0.08304601 0.07151906 -0.0968664 -0.022986889 -0.011161647
0.053493764 0.081778444 0.10091342 0.052666213 -0.058677275 0.0922203 -0.08039012 0.021465246
-0.05780027 -0.03562303 -0.04814224 0.063037485 -0.052727886 -0.15202053 -0.16115224 0.0047125337
0.07678643 -0.0410722 -0.03363857 0.021828169 -0.07123292 0.1275791 -0.100621745 -0.020370865
0.0010617437 -0.007014478 -0.04468513 0.03840437 -0.007010663 -0.14403862 -0.07579837 -0.011183596
-0.049144287 0.0945612 0.071879625 0.06873455 -0.0109060565 -0.043941617 0.008105533 0.01691858
0.057522636 0.019804046 0.07779218 0.051784255 -0.034626313 -0.051877547 -0.12642318 0.09468234
0.05838071 0.019262368 -0.100428045 -0.13856055 -0.0848761 -0.074602105 -0.06550153 0.061551273
-0.04105848 -0.030518197 0.09960479 0.04497971 -0.0018985057 -0.14262989 -0.14193122 -0.0878788
-0.173482 0.0561865 0.009841067 0.10674791 -0.11948434 0.08595046 -0.13806155 -0.079549424
-0.037758913 0.09621007 0.18013579 -0.026040621 -0.032096192 0.047402278 0.15625092 -0.15749243
0.052219998 -0.19286478 0.027781926 0.024488157 -0.028596602 -0.016108802 0.12036979 0.09331469
-0.07442181 -0.16674791 0.06969179 0.019368576 -0.06911324 -0.023002226 -0.14932242 0.0047030943
-0.2217781 0.023872387 -0.044905156 -0.050358523 -0.10549223 0.02034644 -0.042403027 -0.1721283
0.115432955 -0.015338835 -0.20375839 -0.027853616 0.2725089 0.047163904 -0.082894035 -0.22411151
-0.06704947 -0.056982826 -0.16240762 -0.17334735 -0.09362874 0.12066849 -0.20677589 0.07668091
-0.09977235 -0.01751911 0.14379725 0.17108536 -0.069170065 0.027566666 -0.087177604 0.031227544
00000000: ca1e 6b3d 91d4 c23d 89aa e23d b487 45bd
00000010: 344f e43d 83e3 853c d2ff 2d3d d120 d2bc
00000020: 373f 22bd ee4b f4bd a351 80bd 51fb b1bb
00000030: 156a cabd 4f6e 30bd ee15 42bd a3d1 2e3d
00000040: 37e0 e0bc 3131 6ebd ba7d 13be 8b1b fa3a
00000050: 41f6 e9bd e025 f6bc 499c c63d 48ec 533d
00000060: 928f 763b 65f1 383c 61e2 babc 5849 353c
00000070: 672f 91bd 1b85 903d a9ff 57bd f7fe e83c
00000080: c944 983d 3cf3 1abd 91cb d43d f9bd 86be
00000090: 6431 9fbd 978f 093d a7de fbbd 8d83 b1bc
000000a0: 22ca 583c 2a88 a8bc f792 93bc bb5a d7bd
000000b0: 3640 95bd a82c dd3a 122d b5bd 7aec 753d
000000c0: fb78 083d 4337 4cbe 2fc3 193d f1df d5bc
000000d0: 9a61 94bc fdbb df3d 7d27 11be 27fd 943d
000000e0: 7f76 2d3c 3aa7 983c 4f8e f23b 01f6 efbd
000000f0: 62fb d5bc 65e4 713d 1128 883d 517b f7bc
00000100: 7faa 75bd 17e9 77bd 5cd4 903d c0dd c63d
00000110: 189e 7a3d a879 debc bd69 d3bd b443 b7bd
00000120: a7af a2bc 6d2f 983d aa5c 793a a031 5abd
00000130: 707a 92bd 89a2 343d 01d9 f7bc 9b07 91bd
00000140: 85a8 edbd eceb cb3d 50c3 943d 8c44 27bd
00000150: 58c4 173d 444e 90bd f7ee 45be dc48 0bbd
00000160: 7e71 9bbc a197 03be ba83 53bd 8142 92bb
00000170: b709 b9bd 9d3e a9bd cc8a 60ba 5251 2abd
00000180: a884 00be 6df3 79bc 1d72 c8bd 4ab2 273d
00000190: 20b7 2bbd a49b b2bd ff16 d4bc 9c9c 493c
000001a0: da35 2b3d 30d9 b53c 070c 97bc d7b7 76bd
000001b0: c59a afbd ec8e ecbc b84c 4b3d 9133 59bd
000001c0: 2afa 66bd ff9b 13be d3d7 b73d 1040 5c3d
000001d0: 9876 e5bd 3391 b6bd 96b5 893d c3d3 4dbc
000001e0: b4b4 b6bc b150 d53d 6815 2a3d 0714 aa3d
000001f0: 9678 923d e461 c6bd 004f bcbc 57df 36bc
00000200: 471c 5b3d 757b a73d b2ab ce3d 87b8 573d
00000210: 9557 70bd ffdd bc3d 93a3 a4bd e2d7 af3c
00000220: fabf 6cbd 74e9 11bd cc30 45bd cc19 813d
00000230: 32f9 57bd 45ab 1bbe 1805 25be 996b 9a3b
00000240: 3442 9d3d 533b 28bd 99c8 09bd fdd0 b23c
00000250: 91e2 91bd 18a4 023e c612 cebd cde0 a6bc
00000260: 352a 8b3a b5d9 e5bb c107 37bd e74d 1d3d
00000270: b4b9 e5bb dc7e 13be 2d3c 9bbd 673b 37bc
00000280: 854b 49bd 4da9 c13d a035 933d b3c4 8c3d
00000290: 51af 32bc 20fc 33bd 12cd 043c d598 8a3c
000002a0: db9c 6b3d 183c a23c 8251 9f3d ba1b 543d
000002b0: 52d4 0dbd 8d7d 54bd 1475 01be d1e8 c13d
000002c0: 9d20 6f3d 1dcc 9d3c 38ad cdbd d1e2 0dbe
000002d0: 85d3 adbd fdc8 98bd ab25 86bd 301d 7c3d
000002e0: f02c 28bd 4c01 fabc 99fd cb3d a53c 383d
000002f0: 48d7 f8ba 920d 12be 6b56 11be cdf9 b3bd
00000300: 44a5 31be d123 663d 6d3c 213c a69e da3d
00000310: 35b4 f4bd cb06 b03d 0260 0dbe cfea a2bd
00000320: 17a9 1abd c909 c53d 8475 383e 2453 d5bc
00000330: 4c77 03bd e428 423d 3e00 203e b245 21be
00000340: a3e4 553d 587e 45be ec96 e33c 639b c83c
00000350: 6c43 eabc 9bf6 83bc 7084 f63d c61b bf3d
00000360: 766a 98bd f7bf 2abe 92ba 8e3d d9aa 9e3c
00000370: 3e8b 8dbd 2a6f bcbc fae7 18be 6a1c 9a3b
00000380: cc19 63be 0690 c33c 78ee 37bd bd44 4ebd
00000390: 4f0c d8bd 94ad a63c ccae 2dbd 6742 30be
000003a0: 1d68 ec3d bd4f 7bbc 0aa6 50be 442d e4bc
000003b0: 4986 8b3e f02e 413d 59c4 a9bd 7d7d 65be
000003c0: 3c51 89bd d366 69bd 2f4e 26be f881 31be
000003d0: 6dc0 bfbd 0b21 f73d 0fbd 53be e20a 9d3d
000003e0: 7255 ccbd 3d84 8fbc 963f 133e 0031 2f3e
000003f0: 09a9 8dbd 7dd3 e13c 2c8a b2bd e8d0 ff3c

encoder_low.2.bias f4 [64]
-0.020723589 0.11218788 -0.025874669 0.068032585 -0.0543342 0.067796215 0.016146112 0.040462825
-0.034179285 0.001722868 -0.10302808 0.034143504 -0.011881838 0.101456456 0.016732568 -0.1090536
0.032263827 0.029855842 -0.009157938 0.025813619 0.026950676 0.003790793 0.056527212 0.08843553
0.10326321 -0.018335482 0.022900403 0.019169588 -0.046721455 0.07256315 0.09454553 -0.049700804
0.022333339 -0.082954526 -0.081292436 -0.10941977 -0.07562104 0.0049144067 0.010670581 -0.010710497
0.015667856 -0.06913103 -0.06307751 -0.048327662 0.12447867 0.082263716 -0.05847573 0.0065674055
-0.036183 0.025908913 0.07741338 0.120468125 -0.080581866 -0.12110683 -0.01954192 0.100089744
0.086857714 0.06449456 0.07780505 -0.086785875 -0.015300436 0.020678418 0.037732806 0.030214617
00000000: 84c4 a9bc c2c2 e53d 1df7 d3bc ab54 8b3d
00000010: 8a8d 5ebd bed8 8a3d da44 843c 59bc 253d
00000020: 94ff 0bbd dbd1 e13a 6300 d3bd 0fda 0b3d
00000030: 0aac 42bc 67c8 cf3d bd12 893c 7e57 dfbd
00000040: 1327 043d 3d94 f43c 2d0b 16bc 1577 d33c
00000050: aac7 dc3c f46e 783b 1489 673d b01d b53d
00000060: a97b d33d 4b34 96bc a099 bb3c 8a09 9d3c
00000070: ff5e 3fbd fd9b 943d 16a1 c13d 1293 4bbd
00000080: 68f4 b63c 10e4 a9bd a67c a6bd 7917 e0bd
00000090: 34df 9abd 0809 a13b a9d3 2e3c 157b 2fbc
000000a0: e059 803c 9294 8dbd c82e 81bd 3af3 45bd
000000b0: acee fe3d e179 a83d 3f84 6fbd 6433 d73b
000000c0: a034 14bd ee3e d43c e88a 9e3d feb7 f63d
000000d0: 1b08 a5bd dc06 f8bd 6016 a0bc dafb cc3d
000000e0: 75e2 b13d b915 843d 4158 9f3d cbbc b1bd
000000f0: aeae 7abc c965 a93c b78d 1a3d a584 f73c

encoder_low.4.weight f4 [128, 64, 3]
0.15001453 -0.030588595 -0.2609288 0.0064417166 -0.019628752 -0.13156454 0.065799475 0.20207344
-0.10660008 -0.07549113 0.10472341 0.08161161 -0.0455579 -0.10493599 -0.04836275 -0.0060564317
-0.058304977 0.025506703 -0.1215375 0.138418 0.002777902 0.06261082 0.075770974 -0.05714402
-0.04217126 0.07105653 0.047834627 0.057715718 -0.09587082 -0.1653133 0.04404434 0.012165783
-0.024415385 -0.089604415 -0.013336969 0.23498908 0.008124231 0.0023482833 -0.026563365 0.14565058
0.09623667 0.12855025 -0.009870398 -0.107183434 -0.111044966 -0.06690964 0.034319513 0.09235867
0.100796156 0.03264966 -0.07695067 -0.08406015 0.07062305 0.16047731 -0.0043840054 0.15697978
0.051636677 0.05254702 0.07734926 0.1704699 0.07942547 -0.11814735 -0.05447265 -0.1263163
-0.0015211512 -0.008900918 -0.028351579 0.050465465 0.040954363 0.12035029 -0.07037906 -0.1386191
-0.027070573 -0.1824293 -0.22407281 0.05440531 0.12525903 0.038834166 0.088430546 0.058040187
0.15362003 0.0055041933 0.18034455 0.13931479 0.07453036 0.0481504 -0.16707164 0.030159293
-0.07986044 0.08745918 -0.028420834 -0.00020877598 -0.20479089 -0.14774887 -0.018183792 0.117284365
-0.03191452 -0.009088022 0.101654604 -0.12719771 0.18187219 0.17418158 0.010939841 -0.06288644
0.1749252 0.043239526 0.20407607 0.15514903 0.00849555 0.03390937 0.06697152 0.065019175
0.11396513 0.06721331 -0.022718782 -0.09032626 -0.052420516 -0.11128124 0.119014606 -0.038060587
-0.1833847 0.0142166205 0.21316232 -0.056352567 0.030063901 -0.09466223 -0.1835602 0.20549348
0.15938947 0.089995444 0.17176102 0.1676707 0.009578612 0.0754597 0.09417932 -0.021896562
0.07121164 0.13289785 -0.040130828 0.32235563 0.08070672 0.055915814 -0.04372967 -0.005713265
0.038777515 -0.13099976 -0.20115708 0.10187897 -0.012816706 0.045217834 0.015076863 -0.062178314
-0.02356319 0.052819602 -0.10536032 0.002947211 -0.12079066 0.10228691 0.1654671 -0.05297099
-0.07870868 -0.018359553 0.062372696 0.027301537 0.14737736 -0.04052746 0.062528156 -0.061804228
-0.06382981 -0.051473666 -0.08187746 -0.038729955 0.18160753 0.11495441 0.01615726 -0.03213065
-0.1281247 -0.026138553 -0.033203844 0.01710252 -0.029558444 -0.07792929 -0.14467692 0.029241236
-0.052664407 -0.005961574 -0.04918053 -0.024859264 0.1092444 -0.012015201 -0.06254397 -0.08016687
0.04755737 -0.0031985552 -0.058921598 0.03048135 0.0024270054 -0.07493904 -0.022419386 -0.06666349
0.010289053 -0.038852215 -0.07392279 -0.08292676 -0.037980437 -0.019604677 -0.07279907 -0.001444493
-0.025624389 -0.0067388737 0.055953674 0.038421825 -0.08510856 -0.073238395 -0.03774678 -0.013814012
0.042900983 -0.012894028 -0.056216817 -0.048971236 0.006952487 0.0004105442 0.051412616 -0.039554168
0.0049753105 0.012091762 -0.036394864 -0.0063944096 0.043083902 -0.003972841 -0.041388087 -0.10175564
-0.0032193484 -0.04227545 -0.026344368 -0.014343941 -0.00074146606 0.03386439 -0.057668015 -0.013951085
0.06761927 -0.058584493 0.059371207 -0.0054572397 -0.068654515 -0.0867497 -0.007810367 -0.017061371
-0.05328652 -0.037242852 -0.025161073 -0.0058685574 0.034245435 -0.005813204 -0.010552125 0.00451765
00000000: 699d 193e ef94 fabc 7698 85be 0915 d33b
00000010: 7acc a0bc dbb8 06be e0c1 863d 57ec 4e3e
00000020: 2551 dabd 189b 9abd 3a79 d63d fd23 a73d
00000030: ec9a 3abd aee8 d6bd 0518 46bd 0875 c6bb
00000040: 33d1 6ebd 6ff3 d03c a7e8 f8bd 73bd 0d3e
00000050: 760d 363b 1a3a 803d d02d 9b3d d90f 6abd
00000060: c5bb 2cbd 1686 913d 3eee 433d 5167 6c3d
00000070: ec57 c4bd e447 29be d667 343d fe52 473c
00000080: c602 c8bc 8582 b7bd 4d83 5abc faa0 703e
00000090: 7f1b 053c a8e5 193b 6a9b d9bc 6d25 153e
000000a0: bb17 c53d ada2 033e 73b7 21bc fd82 dbbd
000000b0: 8b6b e3bd ec07 89bd 9e92 0c3d 8b26 bd3d
000000c0: 376e ce3d a6bb 053d 5098 9dbd ba27 acbd
000000d0: d1a2 903d 2a54 243e b4a7 8fbb 4fbf 203e
000000e0: fb80 533d 8b3b 573d 4a69 9e3d a98f 2e3e
000000f0: d2a9 a23d 3df7 f1bd b71e 5fbd 0f59 01be
00000100: 5d61 c7ba 28d5 11bc 9241 e8bc e0b4 4e3d
00000110: c3bf 273d 367a f63d e622 90bd 2af2 0dbe
00000120: 1bc3 ddbc bfce 3abe 5873 65be 1ad8 5e3d
00000130: e743 003e 9310 1f3d 131b b53d 8cbb 6d3d
00000140: 924e 1d3e 855c b43b 3eac 383e 89a8 0e3e
00000150: 60a3 983d 5b39 453d d414 2bbe 9f10 f73c
00000160: df8d a3bd cc1d b33d cfd2 e8bc e0ea 5ab9
00000170: b4b4 51be 7b4b 17be 2df6 94bc c932 f03d
00000180: cdb8 02bd ede5 14bc 4a30 d03d 1e40 02be
00000190: b43c 3a3e a85c 323e 053d 333c 9bca 80bd
000001a0: 971f 333e ee1b 313d 51f9 503e 63df 1e3e
000001b0: eb30 0b3c 8de4 0a3d 5d28 893d c628 853d
000001c0: 8d66 e93d 22a7 893d bd1c babc f9fc b8bd
000001d0: e5b6 56bd 6be7 e3bd eebd f33d 6be5 1bbd
000001e0: 33c9 3bbe d4ec 683c 3947 5a3e f3d1 66bd
000001f0: 9248 f63c 45de c1bd 34f7 3bbe e26c 523e
00000200: fe36 233e 884f b83d 1fe2 2f3e deb1 2b3e
00000210: 9cef 1c3c 9d8a 9a3d 16e1 c03d 6b60 b3bc
00000220: 69d7 913d 6016 083e 3960 24bd cc0b a53e
00000230: 9149 a53d fb07 653d e21d 33bd 5736 bbbb
00000240: 2cd5 1e3d cd24 06be 1ffc 4dbe eca5 d03d
00000250: 29fd 51bc 5636 393d f204 773c b0ae 7ebd
00000260: 9707 c1bc 5e59 583d 27c7 d7bd ff25 413b
00000270: 1861 f7bd cd7b d13d 3570 293e 1cf8 58bd
00000280: 0432 a1bd c666 96bc 837a 7f3d 79a7 df3c
00000290: 17ea 163e 1f00 26bd c30e 803d 6e26 7dbd
000002a0: 34b9 82bd 0dd6 52bd 5faf a7bd 4da3 1ebd
000002b0: 53f7 393e 386d eb3d 3b5c 843c 6e9b 03bd
000002c0: 1f33 03be 8520 d6bc c100 08bd 961a 8c3c
000002d0: 8d24 f2bc 6499 9fbd 3026 14be 518b ef3c
000002e0: a2b6 57bd 4f59 c3bb 8671 49bd a8a5 cbbc
000002f0: 87bb df3d 68db 44bc 0e17 80bd 872e a4bd
00000300: 84cb 423d da9e 51bb c657 71bd 06b4 f93c
00000310: 650e 1f3b a479 99bd dca8 b7bc de86 88bd
00000320: 6b93 283c 8023 1fbd d564 97bd 81d5 a9bd
00000330: 6091 1bbd fd99 a0bc ae17 95bd 2455 bdba
00000340: 3dea d1bc c5d1 dcbb ae2f 653d 3460 1d3d
00000350: 664d aebd 03fe 95bd 5e9c 1abd 2a54 62bc
00000360: f1b8 2f3d 7941 53bc 9b43 66bd 1096 48bd
00000370: b0d1 e33b 4f3e d739 0996 523d 8d03 22bd
00000380: ee07 a33b 871c 463c c812 15bd 3288 d1bb
00000390: bf78 303d 9b2e 82bb 8e86 29bd 4365 d0bd
000003a0: b4fb 52bb 0629 2dbd 25d0 d7bc d902 6bbc
000003b0: f25e 42ba 63b5 0a3d 4c35 6cbd 1793 64bc
000003c0: f97b 8a3d 4bf6 6fbd 392f 733d a5d2 b2bb
000003d0: bd9a 8cbd d4a9 b1bd 1bee ffbb 4ac4 8bbc
000003e0: f742 5abd f68b 18bd 981e cebc 074d c0bb
000003f0: f144 0c3d b17c bebb d2e2 2cbc cc08 943b

encoder_low.4.bias f4 [128]
-0.03338907 0.0033666205 -0.011319493 0.08903332 0.0787536 -0.04592042 -0.030394772 -0.006238341
0.012637959 -0.013810013 0.04657056 -0.009715841 0.041927125 0.011714788 0.0455121 -0.068839855
-0.02658408 0.016671617 -0.04218414 -0.079448864 -0.078868896 0.11369863 0.020710029 -0.00904755
-0.017678631 0.106366284 -0.007699132 -0.08345051 0.045373928 -0.08083562 0.05330256 -0.09794488
-0.05704876 0.0039205 0.024145074 0.015257995 0.021221748 -0.016083231 -0.0045613525 0.029983133
0.023623778 0.14259422 -0.0006932899 -0.02577354 0.028374122 -0.07242217 0.031592287 0.03922155
-0.0091759665 0.051607415 -0.09243105 -0.078706905 0.029110087 0.0943386 0.0597976 0.080398515
0.06441741 0.033762343 0.058345918 0.08206913 -0.0245983 -0.041933596 0.11530171 0.014000922
-0.09023894 0.103786126 0.058457017 0.017255832 -0.06921276 -0.04782078 -0.08533912 0.0031017244
-0.06452459 0.059073232 0.0071463124 0.074589156 0.1553607 -0.07114228 0.042731103 -0.034553457
0.040652342 -0.06581621 0.13937059 -0.01527084 -0.06539979 0.024284061 0.042977776 0.028586632
-0.034636386 0.02827617 -0.06521783 0.073317364 0.065994374 0.07170235 0.016205052 0.020442307
-0.06646361 0.021001361 -0.04646974 -0.019585049 0.07798833 0.075528234 0.13312334 0.027830023
0.05680565 -0.006314902 0.037229184 -0.044869438 -0.08323887 0.07511647 0.07964233 0.0073855673
0.05319545 0.015422769 -0.038208324 -0.05124329 -0.05232502 0.02808786 -0.01902174 0.07699227
-0.02859789 0.09703888 -0.09194771 0.066851646 0.08307988 0.039634395 -0.0085147405 0.043935604
00000000: fac2 08bd 85a2 5c3b 6575 39bc 1a57 b63d
00000010: 9149 a13d 0d17 3cbd 75fe f8bc ff6a ccbb
00000020: 710f 4f3c 6543 62bc c6c0 3e3d 312f 1fbc
00000030: c7bb 2b3d 62ef 3f3c e56a 3a3d e9fb 8cbd
00000040: dbc6 d9bc ea92 883c 47c9 2cbd 16b6 a2bd
00000050: 0486 a1bd d4da e83d 14a8 a93c 2d3c 14bc
00000060: c7d2 90bc 91d6 d93d 0049 fcbb 1ae8 aabd
00000070: 03da 393d 258d a5bd c953 5a3d 5397 c8bd
00000080: f6ab 69bd 8a77 803b e4cb c53c abfc 793c
00000090: 3bd9 ad3c fbc0 83bc 6677 95bb 309f f53c
000000a0: a786 c13c 3804 123e e6bd 35ba 0823 d3bc
000000b0: d970 e83c 1352 94bd ea66 013d c7a6 203d
000000c0: cb56 16bc 4c62 533d 7e4c bdbd 1631 a1bd
000000d0: 4778 ee3c 9934 c13d 54ee 743d faa7 a43d
000000e0: 46ed 833d 624a 0a3d 21fc 6e3d dc13 a83d
000000f0: 6082 c9bc 90c2 2bbd 4e23 ec3d 2064 653c
00000100: 32cf b8bd d28d d43d a070 6f3d 1a5c 8d3c
00000110: 6bbf 8dbd b9df 43bd 47c6 aebd 4d46 4b3b
00000120: 7825 84bd c6f6 713d 9d2b ea3b 33c2 983d
00000130: e016 1f3e 0bb3 91bd cf06 2f3d ed87 0dbd
00000140: 1283 263d a6ca 86bd 2ab7 0e3e 8c32 7abc
00000150: 53f0 85bd 5eef c63c 7709 303d 832e ea3c
00000160: e2de 0dbd 6da3 e73c ed90 85bd 6a27 963d
00000170: 0f28 873d afd8 923d 75c0 843c a076 a73c
00000180: 131e 88bd 0c0b ac3c 0e57 3ebd d370 a0bc
00000190: 58b8 9f3d 8cae 9a3d 7c51 083e cafb e33c
000001a0: 0bad 683d 3ded cebb a17d 183d 04c9 37bd
000001b0: 2479 aabd aad6 993d 851b a33d a102 f23b
000001c0: 79e3 593d c8af 7c3c 5580 1cbd 7ce4 51bd
000001d0: c352 56bd 8318 e63c 7bd3 9bbc 20ae 9d3d
000001e0: 1f46 eabc 52bc c63d 154f bcbd 84e9 883d
000001f0: c925 aa3d ad57 223d 6981 0bbc d2f5 333d

fc_mu_low.weight f4 [12, 512]
-0.3688768 -0.06436533 -0.10396056 -0.049263436 -0.0008085486 -0.04702944 -0.018351866 -0.049893714
0.15375681 0.032393772 -0.06509196 0.038333047 0.18082003 0.013470231 0.046901975 -0.16619639
0.018426906 0.010384849 0.002377415 -0.047497217 0.10929308 0.039609402 0.032753166 -0.039814174
-0.06372283 -0.0757102 -0.06417446 -0.01035887 -0.047582936 0.00838188 0.001796585 -0.00053513655
-0.049370967 0.01679021 -0.05142939 -0.04357552 0.109126516 -0.1023708 0.032138553 0.024779465
0.027665036 0.05364077 0.024788288 -0.104693115 0.13019949 0.02996963 -0.009326024 -0.003917454
0.10906748 -0.008088269 0.09300606 0.0031526329 -0.014930678 0.06465817 -0.0032852027 0.009913314
-0.030858837 0.018266276 -0.03656546 -0.0031214685 0.03302818 0.013189522 0.006440992 0.019473802
0.20802803 -0.08465274 -0.01125262 0.02140613 0.0141941765 -0.031420555 -0.034184575 0.016705083
-0.043945923 0.03273371 -0.03320322 -0.020673009 0.032190043 -0.028449574 -0.009874696 0.0018708684
-0.030617714 -0.04505367 0.011787688 0.050937887 0.0002213459 -0.0011202607 -0.23023647 -0.049492575
-0.03402298 0.012442087 -0.06807407 -0.07311173 -0.04411539 -0.0072093946 -0.024445802 0.04728456
-0.00577828 -0.0037590088 -0.031932943 0.020342862 -0.0773431 -0.042250644 -0.0310472 0.02849968
-0.0044570058 -0.044327453 -0.05241576 -0.051731057 -0.0096870875 0.0067537967 -0.014317744 -0.062237114
-0.007419012 0.02511497 0.02274305 -0.04577627 0.0153523 0.019904086 0.0008654908 -0.02015979
0.027999084 -0.008579504 -0.003339937 -0.05683151 0.067380555 0.054448813 0.027646305 -0.038452327
-0.03472186 -0.020967457 0.044652123 -0.025450459 0.017785544 0.022636922 -0.0028574155 0.024036422
-0.10397235 -0.08619254 0.0009154686 -0.005873387 0.00595435 0.05383412 0.03901722 0.025259344
-0.05659374 0.032720253 -0.026558556 -0.032693435 -0.007349492 0.00230923 0.033482958 -0.043901
0.22539441 0.09534614 0.0069742077 -0.07144774 0.1618022 -0.06628273 0.046594556 -0.022089751
-0.03716633 0.030497808 0.015375608 -0.0008843536 0.060649745 -0.010535462 -0.09154406 0.04667518
-0.03179078 0.0024168815 -0.071509495 -0.014003331 0.010275731 -0.004728755 -0.008998447 0.14256874
0.12764631 0.054483544 0.03977721 -0.17383802 0.02227482 0.034914847 -0.0373552 -0.030257901
0.0012923863 -0.0040193414 -0.12386113 -0.078769445 0.018659426 -0.039964575 0.04946373 -0.07154711
-0.04480476 -0.03862954 -0.03454717 0.016280247 -0.0033469677 -0.055243462 -0.017243383 -0.007824156
0.044763874 0.017218318 -0.005013769 0.010654029 -0.03258017 -0.019780565 0.013600752 -0.002361362
-0.111508206 0.0534309 0.0060422323 0.02139642 -0.056894023 0.045944486 -0.07542945 0.07558512
0.13832527 -0.061487067 -0.026622487 -0.020989724 0.07459595 0.03178483 -0.011539713 -0.006260369
0.08728042 0.013488729 -0.008443763 -0.09099547 0.009130313 0.0818989 -0.07322033 -0.01583666
0.07441514 0.07981813 0.04793709 -0.06615812 0.08754436 -0.03936346 0.021842644 0.08217854
0.13149826 0.03761886 -0.020791244 -0.0310195 0.024741903 -0.00807633 0.0103495475 -0.019455459
0.003427195 -0.05498662 0.023406621 0.13961144 0.010148521 0.022003986 -0.030655509 0.050288502
00000000: 6cdd bcbe f8d1 83bd 46e9 d4bd 75c8 49bd
00000010: c7f4 53ba f1a1 40bd a756 96bc 5a5d 4cbd
00000020: 6d72 1d3e 55af 043d ef4e 85bd 1d03 1d3d
00000030: e328 393e 3eb2 5c3c 491c 403d 632f 2abe
00000040: 06f4 963c 3725 2a3c 68ce 1b3b 718c 42bd
00000050: 0dd5 df3d 783d 223d 2f28 063d 3014 23bd
00000060: 1d81 82bd f30d 9bbd e66d 83bd 40b8 29bc
00000070: 53e6 42bd 2754 093c 647b eb3a 6848 0cba
00000080: 3639 4abd 9f8b 893c a0a7 52bd 3f7c 32bd
00000090: b97d df3d c8a7 d1bd b7a3 033d 4efe ca3c
000000a0: c9a1 e23c 6db6 5b3d cf10 cb3c 5869 d6bd
000000b0: 0453 053e df82 f53c 2ecc 18bc fc5d 80bb
000000c0: c55e df3d a984 04bc f679 be3d 679c 4e3b
000000d0: cd9f 74bc 816b 843d 8e4c 57bb 746b 223c
000000e0: accb fcbc 28a3 953c aac5 15bd 8d91 4cbb
000000f0: 8f48 073d dd18 583c f50e d33b 8687 9f3c
00000100: 4d05 553e 6a5e adbd e95c 38bc e95b af3c
00000110: b18e 683c d7b2 00bd 2005 0cbd 19d9 883c
00000120: a400 34bd c813 063d 1a00 08bd 715a a9bc
00000130: b5d9 033d 150f e9bc 7ac9 21bc ed37 f53a
00000140: 00d2 fabc 328a 38bd 2621 413c 3fa4 503d
00000150: 1619 6839 b6d5 92ba 1cc3 6bbe bab8 4abd
00000160: ae5b 0bbd e5d9 4b3c 6b6a 8bbd 9abb 95bd
00000170: 57b2 34bd c93c ecbb 9042 c8bc 74ad 413d
00000180: ba57 bdbb b459 76bb 1ecc 02bd 13a6 a63c
00000190: 0f66 9ebd 030f 2dbd b356 febc 2978 e93c
000001a0: 130c 92bb b490 35bd e8b1 56bd f2e3 53bd
000001b0: 97b6 1ebc f44e dd3b f994 6abc 58ec 7ebd
000001c0: 2f1b f3bb e9bd cd3c a24f ba3c e67f 3bbd
000001d0: 3788 7b3c e50d a33c 1be2 623a 2526 a5bc
000001e0: 565e e53c 0c91 0cbc d8e2 5abb 28c8 68bd
000001f0: d1fe 893d b805 5f3d 817a e23c 3080 1dbd
00000200: 8238 0ebd f2c3 abbc 25e5 363d 7b7d d0bc
00000210: fdb2 913c 1171 b93c 7a43 3bbb 08e8 c43c
00000220: 75ef d4bd b785 b0bd 0ffc 6f3a 8b75 c0bb
00000230: b51c c33b 2b81 5c3d 85d0 1f3d afec ce3c
00000240: d6ce 67bd ac05 063d 5491 d9bc 8de9 05bd
00000250: 02d4 f0bb 7356 173b 6d25 093d 89d1 33bd
00000260: cbcd 663e d644 c33d e587 e43b 3153 92bd
00000270: 7aaf 253e 3dbf 87bd efd9 3e3d 91f5 b4bc
00000280: b93b 18bd 8ad6 f93c f9e9 7b3c f7d3 67ba
00000290: de6b 783d ee9c 2cbc 747b bbbd 792e 3f3d
000002a0: 0d37 02bd 8b64 1e3b 9273 92bd 3a6e 65bc
000002b0: 8a5b 283c acf3 9abb 396e 13bc 8afd 113e
000002c0: b7b5 023e 232a 5f3d 6eed 223d 9802 32be
000002d0: af79 b63c df02 0f3d c401 19bd 6bdf f7bc
000002e0: 4a65 a93a aeb4 83bb e7aa fdbd e051 a1bd
000002f0: a7db 983c e5b1 23bd 7b9a 4a3d 4b87 92bd
00000300: 3285 37bd 023a 1ebd 5581 0dbd 275e 853c
00000310: cd58 5bbb f846 62bd ff41 8dbc e430 00bc
00000320: 535a 373d 6e0d 8d3c 8b4a a4bb 3d8e 2e3c
00000330: c972 05bd da0a a2bc b0d5 5e3c 15c1 1abb
00000340: 6a5e e4bd 5cda 5a3d ebfd c53b 8c47 af3c
00000350: b509 69bd 4930 3c3d c17a 9abd 5fcc 9a3d
00000360: 24a5 0d3e ddd9 7bbd 6717 dabc a4f2 abbc
00000370: c3c5 983d cf30 023d 1011 3dbc c823 cdbb
00000380: 14c0 b23d d4ff 5c3c b557 0abc d55b babd
00000390: 4f97 153c 9cba a73d 8af4 95bd e2bb 81bc
000003a0: f766 983d b077 a33d af59 443d e97d 87bd
000003b0: 754a b33d 943b 21bd 58ef b23c 394d a83d
000003c0: 7ba7 063e 3c16 1a3d 6652 aabc 9b1c febc
000003d0: 88af ca3c 9552 04bc 2691 293c 0e61 9fbc
000003e0: ca9a 603b a639 61bd 3ebf bf3c 4df6 0e3e
000003f0: fb45 263c b441 b43c 4321 fbbc 51fb 4d3d

fc_mu_low.bias f4 [12]
-0.004861836 0.030441554 -0.0077593997 -0.03437915 -0.003755642 -0.019522421 -0.0030368695 -0.018144587
0.010495561 0.026738325 -0.022801077 0.02534006
00000000: 0950 9fbb 9160 f93c 9042 febb 27d1 0cbd
00000010: 3821 76bb 7ced 9fbc 3706 47bb f5a3 94bc
00000020: 93f5 2b3c 550a db3c 53c9 babc f595 cf3c

fc_logvar_low.weight f4 [12, 512]
-0.004252445 0.06782636 0.07724699 0.028842835 0.018954173 0.031028567 0.0009545529 -0.0013373635
0.035605375 -0.03317973 -0.019843172 -0.043661647 -0.02500314 0.027128583 0.008512509 -0.0037392867
-0.028400796 0.0211211 0.008124435 0.0017136616 0.03405801 -0.022444895 -0.015183566 -0.036991544
-0.0037008494 -0.028141322 -0.07653401 -0.032085698 -0.019928917 -0.021652212 -0.010930035 -0.0055465703
-0.018083736 0.04937331 0.0062619597 -0.046737246 -0.046452943 0.004621549 0.02497365 -0.019130735
-0.017752407 0.039924324 -0.036549363 0.022621183 -0.026635502 -7.058575e-05 0.023605267 -0.04590895
0.020169344 0.010748872 0.0028182545 0.02729955 -0.016460175 -0.03093003 -0.016621865 -0.031108586
0.0045516198 0.00749956 -0.03637678 -0.0061398298 -0.018320592 -0.0075322655 -0.032023903 0.036131073
0.06071938 -0.0131564345 0.005729443 0.023205021 -0.023762671 0.041466754 -0.034017347 -0.038894095
-0.04082656 0.023668485 -0.009362489 -0.025651762 -0.01326186 -0.02774017 0.0056960885 -0.02822952
-0.029793696 0.04133386 -0.048864845 -0.007787477 -0.009446358 0.013500256 -0.040843368 -0.015812393
-0.009747367 -0.0226086 -0.0451395 -0.006774158 0.0058465316 0.017730512 -0.0007128247 -0.04076849
-0.0028923433 -0.018855715 0.040872116 1.7407236e-05 -0.041816216 -0.037841037 -0.10387593 -0.07678326
0.06239872 -0.021167517 -0.018590767 -0.034301683 0.01957117 0.010492543 -0.016806886 0.0526561
0.024078226 0.0027953982 -0.015756506 -0.01534621 -0.0011406307 0.014556547 -0.038593985 -0.015538142
-0.013558507 -0.030814098 0.022662135 0.01473514 0.076628946 0.02699596 -0.016682288 0.017758423
-0.036043398 -0.0024309321 -0.020939844 0.018052733 -0.035463057 -0.016879914 0.012360444 -0.05081387
-0.037394207 -0.080484904 -0.06270554 -0.043856353 -0.06567211 0.008717112 -0.02877708 -0.043444827
-0.043049417 -0.0010692315 0.050671957 0.0012320431 -0.02874019 0.012993174 0.002551665 0.00033696406
0.03953059 -0.062328123 -0.033528343 0.036670044 0.020869596 -0.038711507 -0.02709511 0.034507677
-0.029993031 -0.035585076 0.021834314 0.044388514 0.010067347 -0.03364532 -0.01984622 0.055504136
-0.009068781 -0.011730691 -0.019089635 -0.019200863 -0.018803181 -0.048496626 -0.030994168 0.0022099316
0.010071502 0.0253482 0.0042521595 -0.02337056 -0.020077368 0.028241027 -0.04471508 0.027579403
0.009747144 -0.05230445 0.024352334 0.01501847 -0.01764263 0.006191581 7.468728e-05 -0.035040688
-0.026035843 0.029446723 0.009371158 -0.002242355 0.00026121817 0.006839494 -0.0022279252 -0.028523706
-0.0020701832 -0.06254961 -0.011009589 -0.012783446 0.026069053 -0.022008158 0.04917769 0.013005656
0.0280006 -0.0018944894 0.01815658 -0.061121054 0.015208123 0.022159467 -0.017472874 0.007834618
-0.023225965 -0.0046772594 -0.027405309 -0.015152656 -0.03412509 -0.008137493 -0.041088544 -0.015540935
0.032732256 -0.010531407 0.018579477 0.0239334 0.03144335 -0.02428961 -0.030237423 -0.046703305
0.00645405 -0.0019919355 -0.019050026 0.037986923 0.0020595628 0.01656425 -0.025476012 -0.018433703
0.037327487 0.00727185 0.02716508 0.005491613 -0.016657101 0.0036526273 0.007665231 0.02164238
-0.046572875 0.012365641 -0.00027311395 0.07786564 -0.025977477 -0.024956414 -0.020122662 -0.0115525825
00000000: 1858 8bbb 8ce8 8a3d ab33 9e3d cf47 ec3c
00000010: c845 9b3c 9f2f fe3c f63a 7a3a 794a afba
00000020: f1d6 113d 78e7 07bd 268e a2bc 8ed6 32bd
00000030: 63d3 ccbc c33c de3c 0d78 0b3c d20e 75bb
00000040: c9a8 e8bc 2806 ad3c 5a1c 053c f19c e03a
00000050: 6980 0b3d 5bde b7bc 7ec4 78bc 7284 17bd
00000060: f389 72bb a188 e6bc ddbd 9cbd 4b6c 03bd
00000070: f841 a3bc fb5f b1bc e413 33bc 01c0 b5bb
00000080: 5824 94bc ab3b 4a3d 2031 cd3b 8e6f 3fbd
00000090: 7145 3ebd 5d70 973b 8a95 cc3c 0fb8 9cbc
000000a0: 7f6d 91bc b087 233d c9b4 15bd 0f50 b93c
000000b0: b232 dabc 7007 94b8 d55f c13c 060b 3cbd
000000c0: 2e3a a53c 091c 303c 77b2 383b 4ea3 df3c
000000d0: 7dd7 86bc f960 fdbc 942a 88bc 6fd7 febc
000000e0: c125 953b debe f53b d2ff 14bd a030 c9bb
000000f0: 1115 96bc 39d1 f6bb 7f2b 03bd 2dfe 133d
00000100: e2b4 783d 168e 57bc 0dbe bb3b 7518 be3c
00000110: efa9 c2bc 0bd9 293d c655 0bbd 6a4f 1fbd
00000120: c039 27bd 69e4 c13c 2065 19bc a523 d2bc
00000130: 4648 59bc 5a3f e3bc 41a6 ba3b 9841 e7bc
00000140: e911 f4bc b24d 293d 8126 48bd 182e ffbb
00000150: e6c4 1abc 2e30 5d3c 604b 27bd fe88 81bc
00000160: 6cb3 1fbc ac35 b9bc 32e4 38bd c2f9 ddbb
00000170: 4394 bf3b 943f 913c dbdc 3aba dcfc 26bd
00000180: 788d 3dbb 4d77 9abc 8569 273d c105 9237
00000190: 7b47 2bbd 34ff 1abd e7bc d4bd 8b40 9dbd
000001a0: cd95 7f3d 8067 adbc aa4b 98bc ec7f 0cbd
000001b0: b853 a03c eae8 2b3c 98ae 89bc ecad 573d
000001c0: b33f c53c 0033 373b ca13 81bc ac6e 7bbc
000001d0: 3781 95ba 957e 6e3c ba14 1ebd b193 7ebc
000001e0: 8024 5ebc d96d fcbc f1a5 b93c a86b 713c
000001f0: a3ef 9c3d a226 dd3c 4ba9 88bc 1d7a 913c
00000200: 3ea2 13bd 4650 1fbb 098a abbc 53e3 933c
00000210: b641 11bd bf47 8abc 7683 4a3c 3422 50bd
00000220: ab2a 19bd 45d5 a4bd c36b 80bd b8a2 33bd
00000230: 197f 86bd 38d2 0e3c e9bd ebbc 34f3 31bd
00000240: 9654 30bd 7525 8cba 668d 4f3d 827c a13a
00000250: 8c70 ebbc 52e1 543c d639 273b 8daa b039
00000260: d4ea 213d c64b 7fbd 0455 09bd 5433 163d
00000270: b7f6 aa3c f58f 1ebd 90f6 ddbc ec57 0d3d
00000280: f2b3 f5bc a8c1 11bd e0dd b23c bbd0 353d
00000290: 84f1 243c adcf 09bd 8a94 a2bc 4e58 633d
000002a0: 3995 14bc 1632 40bc de61 9cbc 214b 9dbc
000002b0: 2109 9abc 66a4 46bd 7be7 fdbc 80d4 103b
000002c0: f102 253c 07a7 cf3c b355 8b3b 9e73 bfbc
000002d0: 4b79 a4bc ba59 e73c 2927 37bd 33ee e13c
000002e0: 7cb2 1f3c 313d 56bd 8c7e c73c 0710 763c
000002f0: 4787 90bc bfe2 ca3b 6ea1 9c38 d386 0fbd
00000300: 1f49 d5bc 413a f13c 7c89 193c 79f4 12bb
00000310: 1cf4 8839 d61d e03b 6202 12bb 8caa e9bc
00000320: e9ab 07bb 031a 80bd 9061 34bc a971 51bc
00000330: c48e d53c 744a b4bc 8c6e 493d ad15 553c
00000340: 8461 e53c 8450 f8ba 1cbd 943c 125a 7abd
00000350: 7e2b 793c c587 b53c 4623 8fbc c55c 003c
00000360: 6144 bebc b243 99bb 1981 e0bc d842 78bc
00000370: c0c6 0bbd 1f53 05bc 764c 28bd 689f 7ebc
00000380: 4212 063d ec8b 2cbc fd33 983c fa0f c43c
00000390: beca 003d 01fb c6bc 79b4 f7bc f74b 3fbd
000003a0: 7f7c d33b 228b 02bb cd0e 9cbc 2d98 1b3d
000003b0: bbf9 063b c0b1 873c 12b3 d0bc 4702 97bc
000003c0: b5e4 183d b348 ee3b 4d89 de3c fdf2 b33b
000003d0: 7974 88bc eb60 6f3b 9e2c fb3b 5c4b b13c
000003e0: 33c3 3ebd 4299 4a3c bc30 8fb9 0578 9f3d
000003f0: b8ce d4bc 6571 ccbc 48d8 a4bc 0b47 3dbc

fc_logvar_low.bias f4 [12]
0.011336306 0.022153858 0.006419855 0.006100881 0.015340494 -0.17316249 0.029647054 0.003119886
0.034100026 -0.12056234 0.020416293 -0.06391816
00000000: eabb 393c 027c b53c a65d d23b e6e9 c73b
00000010: b256 7b3c 8251 31be 61de f23c 0077 4c3b
00000020: 78ac 0b3d 63e9 f6bd 1240 a73c 86e7 82bd

encoder_high.0.weight f4 [64, 12]
0.102888875 -0.1192342 0.067817345 0.016430182 0.19186948 -0.02969653 0.15341426 0.14975533
0.13628285 -0.12778735 0.043959543 -0.036330085 0.0142214745 -0.064308636 -0.115596175 0.1574669
0.1645393 0.11878186 0.061005313 0.088720754 0.20303036 0.07914794 0.20552939 -0.028935425
-0.16915193 0.14592975 0.012639736 0.18560755 0.15276529 -0.12716374 0.05500043 0.023103697
-0.08532361 -0.017305253 0.08341313 -0.01765981 -0.09544177 0.037988126 0.0837301 0.18079658
-0.20279427 -0.24379513 0.22805364 0.031159583 0.038528964 -0.23513873 0.19502984 -0.13588479
0.07971814 -0.05298825 -0.09212677 -0.08811624 0.08926345 -0.22016422 0.2502165 0.13666396
0.06034198 0.012961821 0.10622195 -0.11383127 0.23942658 0.072856605 0.16371322 0.09242277
0.10317957 -0.12791169 -0.08211199 -0.007049964 -0.09673371 -0.17258348 0.0519578 0.0034798456
0.07628705 -0.23757581 -0.06261301 0.21192905 -0.028957026 -0.036889233 0.1545007 -0.21638273
0.1921236 0.08577532 0.10157389 0.14374144 -0.16217695 0.12442989 0.17789443 0.08283068
0.123953685 0.1366469 0.25759763 -0.1715385 0.17635237 -0.23725212 -0.071903 -0.001623462
-0.18757507 0.11939041 -0.24284625 0.1851137 -0.18368186 0.16876948 -0.077525295 -0.16803452
0.012654442 0.07326253 0.07822146 -0.12416411 0.24481969 0.16434398 -0.17128766 0.09755538
-0.06457675 -0.00058220886 0.16435294 0.03655676 0.11166764 0.17748535 -0.17775014 -0.23150086
0.04088866 -0.21105999 0.11076398 -0.21759735 0.22606498 0.104107276 0.110334866 0.14281964
-0.098437056 -0.23922975 0.23893785 -0.18866934 -0.11332663 -0.103110485 0.1950862 0.22531563
0.14993145 0.037038963 0.03158709 -0.23938443 -0.10744339 -0.15854222 0.021634424 -0.11861583
-0.29941797 0.1262771 0.18055713 -0.02880544 0.14616825 -0.24450916 -0.13475955 -0.22096616
0.19114925 -0.17048027 -0.23876064 0.017473565 0.07637916 0.014097775 -0.033720106 0.036592014
-0.040773205 0.009957263 -0.0966082 -0.13014276 0.20876613 -0.17946373 0.18711226 -0.029246885
-0.2542153 -0.25405228 -0.13187155 -0.24216907 0.09411359 -0.066551246 0.23386738 -0.18769144
0.07616077 0.05252466 -0.18427543 0.03423225 0.13680997 -0.2697654 0.12843151 -0.17168078
0.13000491 0.0065027336 0.07784273 0.13458322 0.027307399 -0.12505282 0.18438157 -0.28468055
-0.18914838 -0.07865408 -0.11788224 -0.11403472 0.22321275 -0.15616079 0.13868634 -0.07903376
-0.030682601 0.20580734 -0.0004855898 -0.1551197 -0.036328383 -0.22172625 0.14751263 -0.026916875
0.05120249 0.19595124 -0.090552546 -0.111523226 -0.15637475 0.2476852 0.10052356 0.08609824
0.035854455 -0.1346672 -0.018230444 0.12794235 0.11650574 -0.1433634 -0.19630417 -0.08088491
0.13545321 -0.15515201 0.04397598 0.25164035 -0.19495098 -0.08087338 0.08141057 0.14717686
0.25584266 0.12639575 0.09166033 -0.25368682 0.057155296 -0.08020296 0.0765762 0.032251596
-0.18570374 -0.23676781 0.08311169 -0.19768265 -0.0022772313 0.032090746 -0.0006964361 0.13761914
0.18428436 0.23850676 0.09923474 -0.17352906 -0.28162688 0.19463532 -0.100687124 0.057156425
00000000: 67b7 d23d 0f31 f4bd d2e3 8a3d 9798 863c
00000010: 6f79 443e 2346 f3bc a118 1d3e 7659 193e
00000020: bb8d 0b3e b0da 02be ec0e 343d dbce 14bd
00000030: 3001 693c 3fb4 83bd b0bd ecbd 013f 213e
00000040: fe7c 283e e743 f33d b5e0 793d 3ab3 b53d
00000050: 31e7 4f3e 5118 a23d 4c76 523e fc09 edbc
00000060: 2a36 2dbe 9c6e 153e e516 4f3c e80f 3e3e
00000070: 816e 1c3e 3637 02be 2248 613d f743 bd3c
00000080: 25be aebd bfc3 8dbc 81d4 aa3d 4eab 90bc
00000090: fa76 c3bd 7099 1b3d b07a ab3d bd22 393e
000000a0: 4da9 4fbe 6ea5 79be e586 693e 6242 ff3c
000000b0: 8cd0 1d3d 35c8 70be e7b5 473e 6225 0bbe
000000c0: 4443 a33d 350a 59bd f6ac bcbd 4a76 b4bd
000000d0: c1cf b63d bb72 61be 611c 803e a3f1 0b3e
000000e0: 2729 773d d15d 543c e58a d93d 5e20 e9bd
000000f0: 3e2c 753e d835 953d 70a4 273e 2648 bd3d
00000100: cf4f d33d 48fb 02be 552a a8bd 6203 e7bb
00000110: 531c c6bd b9b9 30be b4d1 543d 1f0e 643b
00000120: 633c 9c3d 1347 73be 403b 80bd ee03 593e
00000130: 4937 edbc 2a19 17bd 6e35 1e3e 6f93 5dbe
00000140: 0dbc 443e f9aa af3d f905 d03d f530 133e
00000150: b711 26be 19d5 fe3d f529 363e 22a3 a93d
00000160: 6edb fd3d 2aed 0b3e d6e3 833e caa7 2fbe
00000170: b795 343e 38f2 72be e141 93bd 58ca d4ba
00000180: ae13 40be f682 f43d b0ac 78be 728e 3d3e
00000190: 1917 3cbe e8d1 2c3e 95c5 9ebd 3e11 2cbe
000001a0: 9454 4f3c aa0a 963d 9332 a03d c149 febd
000001b0: 03b2 7a3e ca49 283e 0866 2fbe 1dcb c73d
000001c0: d140 84bd 609f 18ba 234c 283e 8bbc 153d
000001d0: 01b2 e43d b8be 353e 2204 36be 900e 6dbe
000001e0: de7a 273d 1c20 58be 3ad8 e23d d7d1 5ebe
000001f0: 947d 673e 3236 d53d 3ff7 e13d 503f 123e
00000200: 5e99 c9bd a5f8 74be 20ac 743e 8932 41be
00000210: cb17 e8bd 972b d3bd adc4 473e 24b9 663e
00000220: a187 193e 2bb6 173d 7761 013d 3121 75be
00000230: 480b dcbd e458 22be ad3a b13c dbec f2bd
00000240: 504d 99be c94e 013e f8e3 383e 63f9 ebbc
00000250: 21ad 153e 9c60 7abe 68fe 09be f444 62be
00000260: a1bc 433e 6192 2ebe ab7d 74be b924 8f3c
00000270: ad6c 9c3d 5bfa 663c 181e 0abd 82e1 153d
00000280: ce01 27bd ca23 233c 85da c5bd 2544 05be
00000290: cac6 553e 57c5 37be 5b9a 3f3e 2a97 efbc
000002a0: 8228 82be 2413 82be 5609 07be 2bfb 77be
000002b0: a0be c03d 054c 88bd ee7a 6f3e 2f32 40be
000002c0: 2efa 9b3d 1924 573d b3b2 3cbe 1e37 0c3d
000002d0: ea17 0c3e b11e 8abe 8d83 033e 16cd 2fbe
000002e0: 0220 053e e214 d53b 026c 9f3d 2fd0 093e
000002f0: c4b3 df3c d90d 00be 86ce 3c3e a6c1 91be
00000300: 1db0 41be 6415 a1bd 3e6c f1bd 098b e9bd
00000310: e291 643e 9de8 1fbe cb03 0e3e 74dc a1bd
00000320: 145a fbbc 29bf 523e c296 feb9 b3d7 1ebe
00000330: 12cd 14bd 350c 63be 8d0d 173e c780 dcbc
00000340: b4b9 513d 71a7 483e 9d73 b9bd 4a66 e4bd
00000350: b420 20be 30a1 7d3e 4cdf cd3d 4654 b03d
00000360: 1fdc 123d 33e6 09be 0358 95bc 5203 033e
00000370: 909a ee3d dbcd 12be f603 49be fda6 a5bd
00000380: 3fb4 0a3e 2be0 1ebe 2820 343d 01d7 803e
00000390: 3ba1 47be f1a0 a5bd 96ba a63d 88b5 163e
000003a0: cffd 823e e36d 013e 69b8 bb3d 3de3 81be
000003b0: ac1b 6a3d 7341 a4bd fcd3 9c3d 401a 043d
000003c0: 1f29 3ebe 4373 72be 7636 aa3d 526d 4abe
000003d0: 9a3d 15bb 9671 033d 0991 36ba 08ec 0c3e
000003e0: 0ab5 3c3e 1e3b 743e 953b cb3d 9ab1 31be
000003f0: 6631 90be 7b4e 473e 0d35 cebd db1c 6a3d

encoder_high.0.bias f4 [64]
0.15544923 0.0043222774 0.07666987 -0.0038467704 0.07154303 -0.08685203 0.18159947 -0.19957055
0.029862659 -0.15397984 0.19467479 0.114693075 0.084433645 0.27817157 0.13601439 -0.17266794
0.0665449 -0.33983147 -0.26616344 0.12179421 -0.33140782 0.380387 -0.103293315 -0.101869226
-0.27205 0.053144973 0.32352793 0.25522628 0.15782194 0.30699497 -0.17052475 0.1510633
-0.14411058 -0.26551855 -0.06353429 0.55994946 0.10288035 -0.16911311 -0.024646226 0.06264683
0.082218245 0.26210514 0.06874058 0.15717143 -0.1407822 0.23235954 0.095815115 0.13062243
0.26696378 -0.1537987 -0.10114712 -0.10196764 0.005437287 -0.042124562 0.23903158 -0.09287699
0.1939517 0.15945104 -0.021203164 0.12743095 -0.32599038 0.14085333 -0.11774653 -0.07569986
00000000: 152e 1f3e e4a1 8d3b 1805 9d3d 191a 7cbb
00000010: 2785 923d 7adf b1bd 36f5 393e 395c 4cbe
00000020: 89a2 f43c e4ac 1dbe d458 473e 34e4 ea3d
00000030: 8ceb ac3d 816c 8e3e 5b47 0b3e ddcf 30be
00000040: b148 883d 64fe adbe 9346 88be 3e6f f93d
00000050: 49ae a9be 16c2 c23e 728b d3bd d0a0 d0bd
00000060: 234a 8bbe 8bae 593d 74a5 a53e 05ad 823e
00000070: 139c 213e 722e 9d3e 0a9e 2ebe 56b0 1a3e
00000080: b991 13be 0cf2 87be 441e 82bd d958 0f3f
00000090: efb2 d23d fd2b 2dbe e2e6 c9bc fb4c 803d
000000a0: 0a62 a83d a532 863e dcc7 8c3d 8cf1 203e
000000b0: 3629 10be a9ef 6d3e b73a c43d e3c1 053e
000000c0: 7aaf 883e 687d 1dbe 3926 cfbd 69d4 d0bd
000000d0: 452b b23b ce8a 2cbd b2c4 743e 4b36 bebd
000000e0: 469b 463e 2247 233e 42b2 adbc 427d 023e
000000f0: 36e8 a6be db3b 103e 1825 f1bd 8708 9bbd
